StockPredModel.pth (torch, 337925 bytes, 13 tensors)

lstm.weight_ih_l0 f4 [256, 1]
0	0xbb517fb0	-0.0031966977
1	0xbe04ac3b	-0.12956326
2	0x3e50cc30	0.20390391
3	0x3e097c4c	0.13426322
4	0x3da5a164	0.080874234
5	0xbbcfb587	-0.0063387784
6	0x3bc80bae	0.006104908
7	0x3e97a1f1	0.2961574
8	0x3ced0b8f	0.028936176
9	0x3e6f41f3	0.23365001
10	0x3df6b2cd	0.12045822
11	0x3dc0c616	0.09412782
12	0x3e0c2b48	0.13688385
13	0x3e5a0229	0.21289887
14	0xbd51d12b	-0.05122487
15	0xbec0d14f	-0.3765969
16	0xbe1310db	-0.14361899
17	0x3d07c854	0.033150032
18	0x3cc67042	0.02422345
19	0x3dc3021c	0.09521887
20	0x3e3cc236	0.1843346
21	0xbc8792a3	-0.016549414
22	0x3c94a54b	0.018145224
23	0x3e15a88c	0.14615077
24	0x3df65c86	0.12029366
25	0x3c81296d	0.015766824
26	0xbd49523e	-0.049150698
27	0x3e038375	0.12843116
28	0x3e13034f	0.14356731
29	0x3d329007	0.043594386
30	0xbd762465	-0.060093302
31	0x3e5bfc85	0.21483047
32	0xbd31d9b9	-0.043420527
33	0xbe5f911e	-0.21832702
34	0x3d94a803	0.07258608
35	0x3d6500db	0.05590902
36	0x3df86f18	0.121305645
37	0xbdf0cfad	-0.11758361
38	0x3d21e382	0.03952361
39	0x3dce1b40	0.10063791
40	0x3c50c73d	0.012742815
41	0xbd9469f1	-0.07246769
42	0x3d4d1d26	0.050076626
43	0x3d9c84cf	0.07642519
44	0x3d321ce0	0.04348457
45	0xbbdfa696	-0.0068252785
46	0x3e6ff387	0.23432742
47	0xbb3d384e	-0.0028872672
48	0x3e41d587	0.1892911
49	0x3cf56faa	0.029960472
50	0xbdd9aabc	-0.10628268
51	0x3cc82b71	0.024434777
52	0xbda3fd45	-0.08007292
53	0xba2fff2c	-0.0006713744
54	0x3de75a73	0.11296549
55	0x3d3dd071	0.046341363
56	0xbdd30ce3	-0.10305192
57	0x3e135048	0.14386094
58	0xbcd78a90	-0.026311189
59	0x3e425da1	0.18981029
60	0x3c411881	0.011785627
61	0x3df035ee	0.11729036
62	0x3d2a7938	0.04161951
63	0x3db460d9	0.08807535
64	0x3db1aa68	0.086750805
65	0x3d07d8c2	0.0331657
66	0x3b70c1f8	0.0036736708
67	0x3d92b6a4	0.07163742
68	0x3e315ee6	0.17321357
69	0x3df30f44	0.11868146
70	0xbe06b6f6	-0.13155732
71	0x3e8f108c	0.27942312
72	0xbcc79d6d	-0.024367059
73	0x3dace01d	0.08441184
74	0x3dd1eddd	0.10250447
75	0x3d01ee0a	0.031721152
76	0x3d5647cf	0.052314576
77	0x3e08d99b	0.1336426
78	0xbdb3a906	-0.08772473
79	0xbf06abdd	-0.5260599
80	0xbe867870	-0.26263762
81	0x3e3ed8e0	0.18637419
82	0xbdb041c5	-0.086062945
83	0xbcb1a2c2	-0.021684054
84	0xbd88d5e4	-0.066814214
85	0x3db302f7	0.087408
86	0xbd9670e9	-0.07345755
87	0x3e71610e	0.2357218
88	0x3e1e8e19	0.15483893
89	0x3cae3c83	0.021269089
90	0x3d69da49	0.05709294
91	0x3dfd93cf	0.12381708
92	0x3e40d0da	0.1882967
93	0x3d701a92	0.05861909
94	0xbe111ebd	-0.14171882
95	0xbe4a47d6	-0.19753966
96	0xbb819bb2	-0.003955328
97	0xbe557c90	-0.20848298
98	0x3e4b94d4	0.19880992
99	0xbe42c047	-0.1901866
100	0x3e450239	0.19239129
101	0xbd52a102	-0.05142308
102	0xbe3ca544	-0.18422419
103	0xbd36421a	-0.044496633
104	0xbd93037d	-0.071784
105	0xbda033b2	-0.0782236
106	0xbd8c3a6c	-0.068470806
107	0xbc5fb01f	-0.01365283
108	0x3d4378ba	0.047722556
109	0xbd87bfb2	-0.0662836
110	0x3d828b7b	0.0637426
111	0x3e173ba6	0.14768848
112	0x3de78669	0.113049336
113	0xbdaf7928	-0.085680306
114	0x3cc34246	0.023835313
115	0xbdb06094	-0.08612171
116	0x3df54933	0.11976852
117	0xbb857156	-0.0040723486
118	0x3d74c43a	0.05975745
119	0xbe3eeda6	-0.18645343
120	0xbe0be597	-0.136618
121	0x3c55f4c1	0.013058842
122	0xbdd3fb55	-0.10350672
123	0x3db4f444	0.088356525
124	0xbcf49e07	-0.02986051
125	0xbd5407d7	-0.05176529
126	0x3db5215c	0.088442534
127	0x3e1ff251	0.1561978
128	0x3e2a6ebe	0.16643807
129	0x3dd8ee1f	0.10592293
130	0xbdc149d2	-0.09437908
131	0xbe2da173	-0.16956119
132	0xbe4777ce	-0.19479296
133	0xbd25f914	-0.040520743
134	0xbc1e8613	-0.0096755205
135	0x3e56297f	0.20914267
136	0x3bcf6d66	0.00633018
137	0xbe289b1b	-0.16465418
138	0xbe65b2d3	-0.22431497
139	0xbe003492	-0.12520054
140	0x3d984e7d	0.074368455
141	0x3e489536	0.1958817
142	0xbe34afd9	-0.17645206
143	0xbe798275	-0.24366172
144	0x3de06445	0.10956625
145	0x3dfd8f3b	0.12380835
146	0xbc642693	-0.013925212
147	0xbe41fc67	-0.1894394
148	0xbdbf3deb	-0.09337982
149	0x3e37e16e	0.17957088
150	0x3d57adb7	0.0526559
151	0x3e61d8a0	0.22055292
152	0x3cacd908	0.021099582
153	0x3e22ce4a	0.15899006
154	0xbcabc063	-0.02096576
155	0xbd91cab1	-0.071187384
156	0xbe6394e7	-0.2222477
157	0xbe2d0615	-0.16896851
158	0x3e164bd9	0.14677371
159	0xbe7986ef	-0.2436788
160	0x3ce39523	0.027781075
161	0x3db464a1	0.08808256
162	0x3e5d6bff	0.21623228
163	0xbe464467	-0.19362031
164	0xbdc2b539	-0.09507222
165	0x3e2c0929	0.1680037
166	0x3e27204a	0.16320911
167	0x3e4a3fc7	0.19750892
168	0xbd03bbd1	-0.032161538
169	0xbe197c2a	-0.14988771
170	0x3dc5b46f	0.096535556
171	0x3c4424cf	0.0119716665
172	0x3e60529b	0.21906511
173	0xbdc2ea4b	-0.09517344
174	0x3e42af89	0.19012274
175	0x3e3d500c	0.18487567
176	0x3e02e8a5	0.1278406
177	0x3e3aef2b	0.18255298
178	0xbe10c5c3	-0.1413794
179	0x3e015362	0.12629464
180	0x3bc919ca	0.0061371075
181	0xbe46f127	-0.1942793
182	0x3e2a5565	0.16634138
183	0x3e3d4339	0.18482675
184	0x3dec8c30	0.11550176
185	0x3ddacd87	0.106837325
186	0x3c731398	0.0148362145
187	0x3e36459b	0.1779999
188	0xbd991f3e	-0.07476662
189	0xbe47253f	-0.19447802
190	0x3de8c007	0.11364751
191	0x3d9b28b1	0.07576121
192	0x3e061340	0.13093281
193	0xbe50649b	-0.20350878
194	0x3e50eaf5	0.20402129
195	0x3ea570fb	0.3231276
196	0x3e353be7	0.17698632
197	0x3d94bb66	0.07262306
198	0xbd0b90ee	-0.034073763
199	0x3e59c15a	0.21265164
200	0x3ca6042f	0.020265667
201	0x3ea26ecd	0.3172516
202	0x3e43c708	0.19118893
203	0x3db8b335	0.09018556
204	0x3c3d9bbe	0.011572776
205	0x3e3ca7e1	0.18423416
206	0xbd8ce96f	-0.068804614
207	0xbefb0afc	-0.49031818
208	0xbe80ce1c	-0.2515725
209	0x3e69d2f0	0.22834373
210	0xbd38f14d	-0.045151997
211	0x3e22f2f3	0.1591299
212	0x3da275fc	0.0793266
213	0x3e6e8b75	0.23295386
214	0x3dd5ead3	0.1044518
215	0x3e91b5d6	0.28459042
216	0x3cec2a88	0.028828874
217	0x3e54ecc1	0.2079344
218	0x3d2194c8	0.03944853
219	0x3def10b7	0.1167311
220	0x3e4dbf9f	0.20092629
221	0x3e01962f	0.12654947
222	0xbde5599d	-0.11198733
223	0x3e7f0912	0.24905804
224	0xbd49ec77	-0.049297776
225	0xbe0bdaba	-0.13657656
226	0x3e3762dd	0.17908807
227	0xbe31c786	-0.17361268
228	0x3e5452d6	0.20734724
229	0xbdbdfa0e	-0.0927621
230	0xbe3dc293	-0.18531255
231	0x3db2820f	0.08716213
232	0x3de990a1	0.11404539
233	0xbdb97bf3	-0.090568446
234	0xbc47e7fa	-0.012201304
235	0x3de57e91	0.11205781
236	0x3e18ec3f	0.1493387
237	0x3d59db91	0.05318791
238	0x3e667708	0.22506344
239	0x3d909b68	0.070608914
240	0x3b7a74ca	0.0038216584
241	0x3e0beca1	0.13664486
242	0xbda75fc8	-0.08172566
243	0xbe330525	-0.17482431
244	0x3e0851af	0.1331241
245	0x3d040d6a	0.032239355
246	0x3d772c1d	0.060344804
247	0x3c944aad	0.018102014
248	0xbec039ff	-0.37544248
249	0xbad6314e	-0.0016341598
250	0x3d1b3307	0.03789046
251	0x3dd9609d	0.10614131
252	0x3d362c0b	0.044475596
253	0x3e7eecb3	0.24894981
254	0x3e213ecd	0.15746613
255	0x3c8b3196	0.016991418

lstm.weight_hh_l0 f4 [256, 64]
0	0x3e091909	0.13388456
1	0xbe17ecc3	-0.14836411
2	0x3da1880e	0.078872785
3	0x3d809fa4	0.06280449
4	0xbd0efb63	-0.03490771
5	0x3ba471b8	0.005018439
6	0x3c5a1d74	0.013312686
7	0xbc8df1d9	-0.017327236
8	0x3d6eab27	0.058268692
9	0xbdb1fb86	-0.086905524
10	0xbdf3635b	-0.11884185
11	0x3d4b85af	0.049688037
12	0x3e032f47	0.12811004
13	0xbc894590	-0.016756803
14	0x3d1cd3ef	0.038288053
15	0x3d877d44	0.066156894
16	0x3d2a6b4b	0.04160623
17	0x3d2c1d8b	0.042020362
18	0xbdab63f4	-0.08368674
19	0x3d1a62d9	0.037691925
20	0x3d79d0d6	0.060990177
21	0xbd981a50	-0.07426894
22	0x3e1cb9ef	0.15305303
23	0xbd9f8600	-0.0778923
24	0x3c9deef3	0.019278979
25	0x3ddd1029	0.10794098
26	0xbd04bd26	-0.03240695
27	0x3dfe08d5	0.12404028
28	0xbe049bdc	-0.1295008
29	0xbd964cdb	-0.07338878
30	0xbe19c597	-0.15016781
31	0x3d9c1395	0.076209225
32	0xbd2f4766	-0.0427927
33	0x3c9ffa41	0.01952851
34	0x3db32bb1	0.08748568
35	0x3de2a855	0.11067263
36	0x3d9f4ad6	0.07777946
37	0xbb57453e	-0.0032847668
38	0xbe05abec	-0.13053864
39	0xbe062649	-0.13100542
40	0xbd97ec70	-0.07418144
41	0xbbf5dcea	-0.0075031416
42	0x3ce85e92	0.028365407
43	0xbddf50d7	-0.10904091
44	0xbda3459c	-0.07972261
45	0x3e02dcdc	0.12779564
46	0x3ddee890	0.108842015
47	0xbcb0d5ac	-0.021586262
48	0x3e0106ba	0.12600222
49	0x3c5eed15	0.013606329
50	0x3d912250	0.07086623
51	0x3c1c456b	0.009538035
52	0x3dc984ed	0.09839807
53	0x3cb03265	0.021508405
54	0x3d4756bf	0.048666712
55	0x3bf6da9e	0.0075333854
56	0xbcebcf54	-0.028785385
57	0xbdeb34ce	-0.11484681
58	0x3dcb3f93	0.09924235
59	0xbb2ebff9	-0.0026664718
60	0xbe08a5fa	-0.13344565
61	0xbde8e99a	-0.11372681
62	0x3cba1b2c	0.022718035
63	0x3dd2dbc3	0.102958225
64	0x3d40eb8a	0.047099628
65	0x3d2912ec	0.04127781
66	0xbd32adc5	-0.04362275
67	0x3ca0f0e6	0.01964612
68	0x3dea6ef7	0.11446946
69	0xbdac3575	-0.084086336
70	0xbda3687b	-0.079789124
71	0x3d2e8680	0.042608738
72	0x3c884b78	0.016637549
73	0x3e0258ea	0.1272923
74	0xbd22d97f	-0.0397582
75	0x3c2608a0	0.010133892
76	0xbd927100	-0.07150459
77	0x3c8d6d3d	0.017264003
78	0x3dd59a1e	0.10429786
79	0xbd8a718d	-0.06759939
80	0xbd9f9b0e	-0.07793246
81	0xbbc89d2b	-0.0061222515
82	0xbc1355f7	-0.008992664
83	0x3cc03deb	0.023467025
84	0xbc0e567b	-0.008687611
85	0xbd37a25d	-0.044832576
86	0x3da7e764	0.08198431
87	0xbd3bd10a	-0.045853652
88	0x3dd3075a	0.103041366
89	0x3de97ace	0.11400376
90	0x3d3b646e	0.045750074
91	0x3e0a702c	0.13519353
92	0xbdf71192	-0.12063898
93	0x3d3fb20c	0.046800658
94	0x3ae57fa1	0.001750935
95	0xbdc8fb88	-0.09813601
96	0x3d81eeb7	0.06344359
97	0x3ca10afd	0.01965856
98	0x3cc5fc0c	0.024168037
99	0x3d4db611	0.05022246
100	0x3d7da295	0.06192263
101	0xbdcfb26f	-0.101414554
102	0x3c9b58a1	0.01896316
103	0xbda74272	-0.0816697
104	0xbda22f06	-0.07919125
105	0xbcb4022e	-0.021973696
106	0xbbacb4c4	-0.0052705724
107	0x3df5c33d	0.12000129
108	0x3ce50370	0.02795574
109	0x3c13a7f5	0.009012212
110	0xbdcafee4	-0.09911898
111	0x3dbdbc6d	0.09264455
112	0x3df935e3	0.12168481
113	0xbd70bde0	-0.05877483
114	0x3c4fd29c	0.0126844905
115	0xbe121c1c	-0.14268535
116	0xbd5e03cf	-0.05420285
117	0x3d4c796b	0.04992048
118	0xbd8e7882	-0.06956579
119	0xbe177ce2	-0.14793733
120	0x3d2d6d14	0.042340353
121	0x3d3280d1	0.04357988
122	0x3c245157	0.010029159
123	0xbdee88da	-0.11647196
124	0x3ccf238c	0.025285505
125	0xbc0bcb2a	-0.008532325
126	0x3d9dc92e	0.077043876
127	0x3d8ff086	0.07028298
128	0xbd318097	-0.043335523
129	0xbd8df2e4	-0.06931093
130	0x3ad4892f	0.00162152
131	0xbd819e5d	-0.063290335
132	0x3ab0a921	0.0013478139
133	0x3d4acb93	0.04951055
134	0xbc9978c0	-0.018734336
135	0xbc045763	-0.008077475
136	0x3d8a1b83	0.06743529
137	0x3de2464e	0.11048566
138	0xbdcaec21	-0.09908319
139	0xbdc990ca	-0.098420694
140	0x3dc0b885	0.09410194
141	0xbd903b27	-0.070425324
142	0xbb61f852	-0.0034480286
143	0x3e2c121e	0.16803786
144	0x3da4c9ce	0.08046304
145	0x3dbdbf23	0.09264972
146	0x3bcccb8c	0.0062498506
147	0xbd9cf400	-0.07663727
148	0x3c54d5f8	0.012990467
149	0x3d1a9823	0.037742745
150	0x3d085036	0.03327962
151	0xbdccf898	-0.10008353
152	0x3db2c65e	0.08729242
153	0xbdb52af5	-0.08846084
154	0x3d25e488	0.040501148
155	0xbd823d0c	-0.063593
156	0x3d9947d8	0.07484406
157	0xbc86be65	-0.016448209
158	0xbd6ac0ef	-0.057312902
159	0x3dcb1cc4	0.09917596
160	0xbde1b8da	-0.11021586
161	0xbd8c9862	-0.06865002
162	0xbdd8d8c8	-0.10588223
163	0xbcb696ce	-0.022288706
164	0xbc495983	-0.012289408
165	0xbc82c9fb	-0.015965452
166	0xbe187ff7	-0.14892565
167	0x3ce60f9a	0.028083611
168	0xbda8a269	-0.08234102
169	0x3d9c9f78	0.07647604
170	0xbd35a314	-0.044344977
171	0xbd117a41	-0.03551698
172	0x3d047984	0.03234245
173	0xbd7a7fdd	-0.061157096
174	0xbdf12f72	-0.117766276
175	0x3d513780	0.05107832
176	0xbd106f28	-0.035262257
177	0x3ddb2204	0.10699847
178	0xbc0b59ef	-0.008505329
179	0x3bf52822	0.007481591
180	0xbd48f690	-0.049063265
181	0x3ccb34bc	0.02480542
182	0xbe31f1e7	-0.17377435
183	0xbd860373	-0.06543627
184	0x3cbabf21	0.022796215
185	0xbd9b7628	-0.07590896
186	0xbd4e1b55	-0.050319035
187	0xbdc125c9	-0.09431035
188	0x3de26a7d	0.11055467
189	0xbd159100	-0.036515236
190	0xbd6a38cb	-0.05718307
191	0x3df8c33a	0.121466115
192	0xbd8284a7	-0.06372958
193	0xbd2b9072	-0.0418858
194	0x3cb2f258	0.021844074
195	0x3d91e580	0.07123852
196	0xbd27b86c	-0.040947363
197	0x3c01442b	0.007889788
198	0xbe08de3a	-0.13366023
199	0x3da082a2	0.07837416
200	0xbda00261	-0.07812954
201	0xbb19a0df	-0.0023441834
202	0xbd88680d	-0.06660471
203	0xbe313b9f	-0.173079
204	0x3d584067	0.052795794
205	0x3c4bf9a9	0.01244966
206	0x3b451b04	0.0030075917
207	0x3e68be45	0.22728832
208	0x3c569dc8	0.013099141
209	0xbae12bdf	-0.0017179212
210	0xbcd660a4	-0.026169129
211	0x3dc10e88	0.094266
212	0xbba7c9b7	-0.005120482
213	0xbb573472	-0.0032837656
214	0xbcf4f617	-0.029902501
215	0x3c706186	0.014671689
216	0x3d393835	0.04521962
217	0x3e14b62e	0.14522621
218	0xba8e773b	-0.0010869274
219	0x3e220c1d	0.15824933
220	0xbd9f8da7	-0.0779069
221	0x3d1b6ca1	0.037945393
222	0x3bd3662a	0.006451388
223	0x3dbc78f2	0.09202756
224	0x3d25e432	0.040500827
225	0xbe55ab52	-0.20866135
226	0x3d564b92	0.052318163
227	0x3da80349	0.082037516
228	0xbe1008de	-0.14065883
229	0x3c930813	0.017948186
230	0x3d0fb6d3	0.035086464
231	0x3da7e689	0.08198268
232	0xbe2609b1	-0.16214634
233	0x3e075163	0.1321464
234	0x3b46a499	0.003031051
235	0xbda6dce6	-0.08147602
236	0xbc17be1d	-0.009261635
237	0xba898a45	-0.0010493478
238	0x3d96566a	0.07340701
239	0x3bbce7eb	0.0057649515
240	0x3d8b70fa	0.06808658
241	0x3c34493c	0.011003789
242	0x3dae9cf8	0.08526033
243	0xbdc2ee59	-0.095181175
244	0xbd709995	-0.058740217
245	0x3d982e78	0.07430738
246	0xbe04abda	-0.12956181
247	0xbbab89b1	-0.00523492
248	0xbe05814d	-0.13037606
249	0x3b96bf6b	0.0046004555
250	0xbc5e1434	-0.0135546215
251	0xbcd628b2	-0.026142452
252	0x3cf88b1a	0.030339766
253	0xbe034f86	-0.12823305
254	0x3da1a6c9	0.0789314
255	0x3e26bce5	0.16282995

lstm.bias_ih_l0 f4 [256]
0	0x3e130ff4	0.14361554
1	0xbd9c8cc8	-0.076440394
2	0x3dffcd5c	0.12490341
3	0x3d18d1a3	0.0373093
4	0xbca9344a	-0.020654816
5	0x3d8f6af6	0.07002823
6	0x3cf0cbaf	0.029393999
7	0x3e2b0436	0.16700825
8	0x3d018a93	0.031626295
9	0x3cf823fd	0.030290598
10	0x3d3631dd	0.044481147
11	0x3d6e1298	0.0581232
12	0xbdd92805	-0.10603336
13	0x3dc05b71	0.09392441
14	0x3d792c73	0.060833406
15	0x3e13b51e	0.1442456
16	0x3ababa72	0.0014246239
17	0xbd31cb09	-0.04340652
18	0x3d9920f5	0.07476989
19	0x3df4a8b2	0.119462386
20	0x3d97d3b6	0.074134275
21	0x3d4f64b0	0.050633132
22	0x3d59d9f9	0.05318639
23	0x3cdf7c18	0.027280852
24	0x3debabfa	0.11507411
25	0x3d09a361	0.033603076
26	0xbdbf9691	-0.0935489
27	0xbdcfba79	-0.10142989
28	0x3e1563aa	0.145888
29	0x3dfb07d1	0.1225735
30	0x3b95584b	0.0045576445
31	0x3e91b687	0.2845957
32	0xbd343e67	-0.044004824
33	0x3e1f7071	0.15570237
34	0x3e2d8d26	0.16948375
35	0x3e11a131	0.14221646
36	0x3d84c23d	0.064823605
37	0x3c68aef7	0.014201871
38	0x3e1e16ff	0.1543846
39	0x3e6fc52e	0.23415062
40	0x3c6a3629	0.014295139
41	0x3e278be7	0.16361962
42	0x3d2c64f1	0.042088453
43	0x3da3e838	0.080032766
44	0x3db7e2dc	0.08978817
45	0xbda212d0	-0.079137444
46	0x3db11a24	0.08647564
47	0x3e06332a	0.13105455
48	0x3e362781	0.17788507
49	0x3e14e981	0.145422
50	0x3ddfd986	0.10930161
51	0x3ba2be49	0.0049665314
52	0x3dd2d354	0.10294214
53	0xbd22dfb2	-0.039764114
54	0x3e768970	0.24075866
55	0x3e540e8d	0.20708676
56	0x3c584ad4	0.013201434
57	0x3d329ddb	0.043607574
58	0xbe30a3cc	-0.17249984
59	0x3e15ec98	0.14641035
60	0xbd4bbc01	-0.04973984
61	0x3d364c68	0.04450646
62	0x3d4d58d6	0.05013355
63	0x3e2c469a	0.16823807
64	0xbc649ea3	-0.013953838
65	0x3da9fd7b	0.08300301
66	0x3ac81b66	0.0015266954
67	0xbd06646b	-0.03281061
68	0xbd3a8f74	-0.045546964
69	0x3a12ce72	0.0005600221
70	0xbdf982b3	-0.12183132
71	0x3dea380c	0.11436471
72	0xbd2c3b9b	-0.04204903
73	0x3c76df97	0.015067956
74	0x3cd10ead	0.025519693
75	0x3a8349f4	0.0010016547
76	0x3c27e024	0.01024631
77	0x3dc668e8	0.09687978
78	0x3c8860f9	0.016647803
79	0x3e0f847f	0.14015387
80	0x3d19b981	0.037530426
81	0xbd5632a9	-0.052294407
82	0x3d289469	0.04115716
83	0xbd1a30f8	-0.037644356
84	0x3c833b66	0.016019534
85	0x3ddc1800	0.10746765
86	0xbd07bab3	-0.033137035
87	0x3e183474	0.1486376
88	0xbcd1e5a9	-0.025622206
89	0xbd6509b2	-0.05591745
90	0xbd98cc9d	-0.07460902
91	0x3df20391	0.118170865
92	0xbdad2254	-0.08453813
93	0x3d676a4c	0.056497857
94	0x3deb3d90	0.114863515
95	0xbe0a7147	-0.13519774
96	0x3d832ac1	0.06404639
97	0xbcfd0912	-0.030888114
98	0xbd915213	-0.070957325
99	0x3d581598	0.05275497
100	0xbcd225ad	-0.02565273
101	0xbdc5b0a5	-0.09652833
102	0x3dcd0019	0.10009784
103	0x3da86057	0.082215
104	0xbded8e89	-0.11599452
105	0x3d33d149	0.04390076
106	0x3ce11ba0	0.027478993
107	0xbda706e2	-0.0815561
108	0xbc95346b	-0.018213471
109	0x3ca3d44a	0.019998688
110	0x3d01a297	0.0316492
111	0x3de29287	0.11063104
112	0xbdaf4a1d	-0.08559058
113	0xbd67a574	-0.056554273
114	0xbcc20250	-0.023682743
115	0x3dd4c4c5	0.10389093
116	0x3dd2e4fa	0.1029758
117	0xbc44fde6	-0.012023425
118	0xbc978fff	-0.01850128
119	0x3cdbd57a	0.026835192
120	0xbcbee000	-0.02330017
121	0xbe26f863	-0.1630569
122	0xbdb550ca	-0.088533
123	0xbda74bca	-0.081687525
124	0xbccffffb	-0.025390616
125	0xbd407682	-0.046988018
126	0x3dfc5eef	0.12322795
127	0xbda46fe7	-0.08029156
128	0x3d8d7755	0.069075264
129	0xbdbef140	-0.093233585
130	0xbd838526	-0.064218804
131	0x3bfbfecf	0.0076902877
132	0xbd4ca6b7	-0.04996368
133	0xbcdab3b2	-0.026697014
134	0xbdbe0cbf	-0.09279775
135	0xbd3b3882	-0.045708187
136	0xbd980cc0	-0.07424307
137	0x3d4a37b1	0.049369518
138	0x3dc18eb6	0.09451048
139	0x3c75471b	0.014970566
140	0x3dc364d9	0.095407195
141	0x3dcf67c7	0.10127216
142	0x3ddf2edd	0.1089761
143	0x3e2335de	0.15938517
144	0x3d695c63	0.056972872
145	0x3c461e54	0.012092192
146	0xbc724ff9	-0.014789575
147	0xbdf5e21e	-0.12006019
148	0xbd0743e7	-0.03302374
149	0x3df3f46c	0.11911854
150	0x3d4b2bee	0.04960244
151	0x3d9d059d	0.07667086
152	0xbd99f516	-0.075174496
153	0xbd10890f	-0.03528696
154	0xbdd58ab2	-0.10426845
155	0x3d620863	0.05518378
156	0x3ba5419c	0.0050432216
157	0x3deeec8f	0.11666214
158	0xbdbd4a84	-0.09242728
159	0x3cee1742	0.029063825
160	0xbde70adc	-0.11281368
161	0xbdd21011	-0.10256971
162	0x3cc3ebf6	0.023916226
163	0xbd771336	-0.060321055
164	0xbd5509ff	-0.052011486
165	0x3bc5186e	0.006014875
166	0xbda6d9e3	-0.08147027
167	0xbdffa5c8	-0.12482792
168	0xbd36b6e5	-0.044608016
169	0x3d44a3a8	0.048007637
170	0x3d034ddb	0.03205667
171	0xbd78f90b	-0.06078438
172	0x3dc1d025	0.094635285
173	0x3da2d6b6	0.07951109
174	0x3db014b5	0.085976996
175	0xbc39ab58	-0.011332355
176	0xbda34a01	-0.079730995
177	0xbdb03897	-0.08604544
178	0x3cf8bcdd	0.030363495
179	0xbdd6f00f	-0.10495006
180	0x3dd04ed5	0.10171286
181	0x3c960d5f	0.018316923
182	0x3da01b5c	0.078177184
183	0x3dacdf73	0.08441057
184	0xbd5a3e9e	-0.053282373
185	0xbd9f9233	-0.07791557
186	0xbceba519	-0.028765248
187	0xbbeeb864	-0.0072851647
188	0x3d1dc351	0.038516346
189	0xbc685f40	-0.014182866
190	0x3d89fa57	0.06737202
191	0xbcdbf1a4	-0.026848622
192	0xbcd2a897	-0.025715156
193	0x3e05341c	0.1300816
194	0xbdd93954	-0.106066376
195	0x3d0efcfc	0.034909233
196	0xbc8fde9b	-0.017562201
197	0x3da5a1d6	0.080875084
198	0xbda32969	-0.07966883
199	0x3df65bdb	0.12029239
200	0xbbe767e2	-0.0070619443
201	0x3e216ce5	0.15764196
202	0x3e5428d2	0.20718697
203	0x3d983a54	0.07433
204	0xbdd2860f	-0.10279476
205	0x3d5c8703	0.053839695
206	0x3c9f3cdb	0.019438198
207	0x3e8b157a	0.27164823
208	0x3dad300d	0.084564306
209	0x3e07b778	0.13253582
210	0x3c03e67e	0.008050559
211	0x3d3d20cf	0.046173867
212	0x3da545b7	0.08069938
213	0x3b5fa539	0.003412558
214	0xbd342e54	-0.043989494
215	0x3d131eab	0.03591792
216	0x3e07a28d	0.13245602
217	0x3d7bba78	0.061457127
218	0x3dc6c0d4	0.09704748
219	0x3c978133	0.018494224
220	0x3e39b025	0.181336
221	0x3da01095	0.07815663
222	0x3dc55c64	0.09636763
223	0x3e2f0ada	0.17093983
224	0xbd9cf135	-0.07663194
225	0x3e0e72f7	0.13911043
226	0xbd841d3a	-0.06450887
227	0x3e8a2013	0.26977596
228	0x3dafb4cd	0.08579407
229	0x3d2b8b36	0.04188081
230	0x3dd8f0c1	0.10592795
231	0x3e52cf30	0.20586848
232	0x3d4f1205	0.050554294
233	0x3e06c6f7	0.13161837
234	0x3e0e7a68	0.13913882
235	0x3dd07fbe	0.10180615
236	0x3ccd6324	0.025071688
237	0x3d60c885	0.05487873
238	0x3da32877	0.079667024
239	0x3dd6ac2f	0.1048206
240	0x3be99972	0.007128888
241	0x3e3484a1	0.17628719
242	0x3e3f587a	0.18686095
243	0x3e1e0592	0.15431812
244	0xbc1f1403	-0.009709361
245	0xbd1dd157	-0.03852972
246	0x3d9e8495	0.07740132
247	0x3e4a7924	0.19772774
248	0x3e131848	0.14364731
249	0x3e458db1	0.19292332
250	0x3c0e817b	0.008697863
251	0x3caa643c	0.020799749
252	0x3bb31881	0.0054655676
253	0x3e0f9cb6	0.14024624
254	0x3e081d45	0.13292415
255	0x3de24268	0.11047822

lstm.bias_hh_l0 f4 [256]
0	0x3da802e7	0.082036786
1	0xbdabda44	-0.0839124
2	0xbbbab1a1	-0.0056974445
3	0xbd3d93ee	-0.046283655
4	0x3dfd2a6a	0.123616055
5	0x3d4e0350	0.050296128
6	0xbd5967d2	-0.053077526
7	0x3db6b7c6	0.08921771
8	0x3da47099	0.08029289
9	0x3de7d968	0.11320764
10	0xbcea621a	-0.028611232
11	0x3e078e28	0.13237822
12	0x3d0612bc	0.03273271
13	0x3bb80cd1	0.005616762
14	0x3dc63cce	0.09679566
15	0x3e463584	0.19356352
16	0x3da61cb9	0.08110947
17	0x3dd94ffb	0.10610958
18	0xbba51adc	-0.0050386023
19	0xbd1f6861	-0.038917903
20	0x3dbca163	0.092104696
21	0xbd8400a5	-0.064454354
22	0xbc1d1f0d	-0.009589923
23	0xbbd20cfb	-0.006410239
24	0xbd41d7f7	-0.0473251
25	0x3d98489a	0.07435723
26	0xbb3b60d4	-0.002859165
27	0xbd8d0874	-0.06886378
28	0x3e59d965	0.21274336
29	0xbc9483ae	-0.018129196
30	0x3d392911	0.04520518
31	0x3e4fe2c4	0.20301348
32	0x3d151720	0.036399007
33	0x3b974dec	0.0046174433
34	0x3d5e2e32	0.054243274
35	0x3dcb65b8	0.09931511
36	0xbc327d8b	-0.01089419
37	0x3b97319f	0.0046140696
38	0x3e1e7b80	0.15476799
39	0x3e08371b	0.13302271
40	0xbd063138	-0.032761782
41	0x3e03d736	0.12875065
42	0xbc871f58	-0.016494438
43	0x3e07da0d	0.13266774
44	0xbd38c052	-0.045105286
45	0xbd8f9ad4	-0.07011953
46	0xbb98b878	-0.0046606623
47	0x3cc994e4	0.02460713
48	0x3e1d0023	0.15332083
49	0x3d10618c	0.035249278
50	0x3cb1999b	0.02167969
51	0x3df98db8	0.12185234
52	0x3d3a52af	0.04548901
53	0x3d7f5821	0.062339906
54	0x3e38af49	0.18035616
55	0x3e4d1c61	0.20030357
56	0x3e0cbc86	0.13743791
57	0x3e58471c	0.21120876
58	0xbe264740	-0.16238117
59	0xbd94ba34	-0.07262078
60	0x3b89e3c9	0.0042080623
61	0x3b936fda	0.0044994177
62	0xbd891749	-0.066938944
63	0x3d545e44	0.05184771
64	0xbe001f35	-0.12511905
65	0x3dd97def	0.10619723
66	0x3d7dbfdc	0.06195055
67	0x3dd593de	0.10428594
68	0xbd99a276	-0.0750169
69	0x3d10d285	0.035357017
70	0xbe0dafa0	-0.13836527
71	0xbd847bdf	-0.06468939
72	0xbddb0515	-0.10694329
73	0x3de69b2d	0.11260066
74	0x3d99ab39	0.07503361
75	0xbc6b8e1c	-0.014377143
76	0xbbc875f9	-0.006117579
77	0xbdb06b80	-0.08614254
78	0xbdec3438	-0.115333974
79	0xbd637664	-0.055532828
80	0x3dad23b8	0.084540784
81	0xbc6a62cb	-0.014305781
82	0xbd7e6b8f	-0.062114295
83	0x3dcda2d0	0.1004082
84	0xbd8f4dd4	-0.069972664
85	0x3d495e95	0.049162466
86	0x3d0b6cbd	0.034039248
87	0x3e080c5f	0.13285969
88	0x3d9a8962	0.07545735
89	0xbdd4cf4c	-0.10391101
90	0x3df66e0d	0.12032709
91	0x3d5dbd9a	0.054135896
92	0x3d369bc7	0.044582155
93	0x3b425180	0.0029650629
94	0xbcab7243	-0.020928508
95	0x3d8bcdd9	0.06826372
96	0x3d216ae1	0.03940857
97	0x3deeb1b8	0.11654991
98	0x3ced1c56	0.028944176
99	0xbd51b2f1	-0.051196042
100	0x3c507fa8	0.012725748
101	0x3c5fa577	0.01365029
102	0x3de43bf1	0.111442454
103	0xbd2698a8	-0.040672928
104	0x3dd96e8b	0.106167875
105	0xbd8e597b	-0.06950661
106	0xbde3b79e	-0.111190066
107	0xbd98947c	-0.07450196
108	0x3da26d2c	0.07930979
109	0x3d759751	0.05995876
110	0xbd09f760	-0.03368318
111	0xbda3edf8	-0.08004373
112	0xbd790d8d	-0.06080394
113	0xbdba36e2	-0.09092499
114	0xbdb2a696	-0.0872318
115	0x3c1bc4fc	0.009507414
116	0x3db9428c	0.09045896
117	0x3cbb55fc	0.022868149
118	0xbbbd6dd6	-0.0057809157
119	0xbc7f94f9	-0.015599483
120	0x3d50733a	0.05089114
121	0xbb9488e3	-0.0045329197
122	0xbd1420af	-0.036163982
123	0x3d8d5c31	0.0690235
124	0x3d611d10	0.054959357
125	0x3dba7c4f	0.09105741
126	0xbd5abfab	-0.053405445
127	0xbdbbc20b	-0.0916787
128	0x3d0657d5	0.032798607
129	0x3cdb7633	0.02678976
130	0x3bbeb6bd	0.005820124
131	0xbc8f4fa7	-0.017494036
132	0xbc7b55ba	-0.015340263
133	0x3e0722d4	0.1319688
134	0xbdc077e7	-0.093978696
135	0x3d260416	0.04053124
136	0xbe073a3c	-0.13205808
137	0xbda66fd8	-0.08126801
138	0xbdadf9e8	-0.084949315
139	0xbd545dbf	-0.051847216
140	0xbda2ab6b	-0.07942852
141	0x3dbf6fe7	0.093475156
142	0x3dd3f955	0.10350291
143	0xbcce2a3c	-0.025166623
144	0xbdd85aec	-0.10564217
145	0x3df89f92	0.121398106
146	0xbd2ce1dc	-0.042207584
147	0x3d712a8d	0.05887847
148	0xbd00737b	-0.03136013
149	0x3bfcae16	0.0077111823
150	0x3da33020	0.079681635
151	0xbdcba0a9	-0.09942753
152	0x3e088c5b	0.13334791
153	0x3dd44d93	0.103663586
154	0xbd5f2654	-0.054479912
155	0x3dfead81	0.12435437
156	0xbd3380cd	-0.043824006
157	0xbd80d62a	-0.062908486
158	0x3c7715b9	0.015080863
159	0x3d43a250	0.047762215
160	0xbd2a2f96	-0.041549288
161	0x3d05f000	0.032699585
162	0x3d839921	0.064256914
163	0x3d899c8b	0.06719311
164	0xbcd5f0ed	-0.026115859
165	0xbd53a933	-0.051675033
166	0xbddbd7da	-0.1073453
167	0x3d08223f	0.033235785
168	0xbde17551	-0.110087045
169	0xbd860372	-0.06543626
170	0xbcb22483	-0.021745926
171	0x3e06f7ed	0.13180514
172	0xbcaed6f9	-0.021342741
173	0x3d94b024	0.07260159
174	0x3c2d1875	0.010564913
175	0x3d3e3977	0.04644152
176	0x3db415e5	0.087932386
177	0xbdc92d63	-0.0982311
178	0xbc55f795	-0.013059516
179	0xbc802357	-0.015641851
180	0xbc3df9b7	-0.011595181
181	0xbd94899d	-0.0725281
182	0xbdda9f62	-0.10674931
183	0xbdc1f01f	-0.094696276
184	0xbdf973da	-0.121803
185	0x3d075f51	0.033049885
186	0x3d2d6928	0.042336613
187	0x3d4076c0	0.04698825
188	0xbdb37b05	-0.087636985
189	0xbd4edcbb	-0.050503474
190	0x3dec7d99	0.11547393
191	0x3df69d34	0.12041703
192	0xbd6332af	-0.055468258
193	0xbc032bde	-0.008006064
194	0xbd03fed9	-0.032225464
195	0x3d23cce8	0.039990336
196	0x3cb450da	0.02201121
197	0x3d9748b4	0.07386914
198	0xbc938f90	-0.018012792
199	0x3dee3305	0.11630825
200	0xbd7606c2	-0.06006504
201	0x3e124df1	0.14287545
202	0x3dda3bbc	0.10655925
203	0x3d334961	0.04377115
204	0x3deea4b1	0.11652506
205	0xbcb34bfa	-0.021886814
206	0x3d719283	0.058977615
207	0x3d547b49	0.051875386
208	0x3e1e1d4c	0.15440863
209	0x3e05fccc	0.13084716
210	0x3d120ca2	0.03565658
211	0x3e40b515	0.18819077
212	0xbdacae72	-0.0843171
213	0xbcc1df00	-0.023665905
214	0xbd5ad1a3	-0.05342258
215	0xbcc8343a	-0.024438966
216	0x3ca3a598	0.019976422
217	0xbd00bdc4	-0.031430975
218	0xbdce0970	-0.10060394
219	0xbd881376	-0.06644337
220	0x3e197e7a	0.14989653
221	0x3d4976e9	0.049185667
222	0xbdb943e4	-0.09046152
223	0x3e835ff9	0.2565916
224	0xbd0f5306	-0.034991287
225	0x3dc2d092	0.09512438
226	0xbcb21661	-0.021739187
227	0x3e4c8de0	0.19975996
228	0x3d8c3d34	0.06847611
229	0x3b4027c2	0.0029320573
230	0x3dec550f	0.11539661
231	0x3d3387c3	0.043830644
232	0x3d49c649	0.049261365
233	0x3e63044a	0.22169605
234	0x3da33009	0.07968146
235	0xbcd298dc	-0.025707655
236	0x3e202a01	0.15641023
237	0x3d2fb16c	0.042893812
238	0xbd89ff8d	-0.067381956
239	0x3d790ee2	0.06080521
240	0x3d8a71c9	0.06759984
241	0x3cbcca26	0.02304561
242	0xbc33ac8b	-0.01096643
243	0x3d5c1704	0.053732887
244	0x3dba13da	0.09085818
245	0xbd41ed5e	-0.04734551
246	0x3d47af4d	0.048751164
247	0x3e180123	0.14844184
248	0x3a2767e5	0.0006386026
249	0x3d190ebc	0.037367567
250	0xbdaafbd4	-0.08348814
251	0x3e0709b5	0.13187297
252	0xbca7fad5	-0.020505348
253	0x3e3ca781	0.18423273
254	0x3da68190	0.08130181
255	0xbcf68fc8	-0.030097857

lstm.weight_ih_l1 f4 [256, 64]
0	0x3d50cefb	0.050978642
1	0x3d7211d1	0.059099022
2	0xbd06db11	-0.03292376
3	0x3d0fdbd2	0.035121746
4	0xbcc5e8b3	-0.024158811
5	0x3d234cfe	0.039868347
6	0x3da322d3	0.079656266
7	0x3c76f08b	0.015071998
8	0x3d36b209	0.04460338
9	0x3da6a647	0.08137184
10	0xbc2ba038	-0.010475211
11	0xbde813cc	-0.11331901
12	0x3d570327	0.05249324
13	0x3d065291	0.032793585
14	0x3cd5bbb0	0.026090473
15	0x3cea8fe2	0.028633062
16	0x3c0631ed	0.008190614
17	0x3e01dac6	0.12681112
18	0xbd837304	-0.06418422
19	0xbdb392cd	-0.087682344
20	0xbdeb68f3	-0.11494627
21	0x3df8bba8	0.121451676
22	0xbdd83975	-0.10557834
23	0x3d1d19d6	0.038354717
24	0xbcbc1cc4	-0.022962935
25	0x3dc0f298	0.09421271
26	0xbca97197	-0.020684047
27	0xbd5517fe	-0.052024834
28	0xbd05f20c	-0.032701537
29	0xbdec5a48	-0.11540657
30	0xbbfbf2d9	-0.007688862
31	0x3ddc1670	0.10746467
32	0x3caa21a6	0.020767998
33	0x3cd07ce5	0.02545018
34	0xbd8e9de1	-0.06963707
35	0x3d117f06	0.03552153
36	0xbab8757d	-0.00140731
37	0xbdbdd800	-0.09269714
38	0xbddfeb0f	-0.10933506
39	0xbdc589c1	-0.09645415
40	0x3d14afc5	0.03630044
41	0xbcb71188	-0.022347227
42	0xbd685474	-0.056721166
43	0xbd2f213b	-0.0427563
44	0xbc8c73af	-0.017145006
45	0xbc21a351	-0.009865598
46	0xbdc10e86	-0.09426598
47	0xbc96d894	-0.01841382
48	0xbdd0cfca	-0.101958826
49	0x3d689156	0.05677923
50	0x3d3c55b4	0.04598017
51	0xbdf98758	-0.12184018
52	0x3d84e93e	0.064898
53	0x3d8e9aca	0.069631174
54	0x3d136504	0.035985008
55	0xbdc16e29	-0.094448395
56	0x3d16caa3	0.036814343
57	0x3d759ca4	0.059963837
58	0x3bcee3f1	0.006313794
59	0x3d8db81c	0.06919882
60	0x3d051543	0.03249098
61	0x3d265750	0.04061061
62	0xbca6aaa1	-0.020345034
63	0x3d0e3451	0.03471786
64	0xbd870b3e	-0.06593941
65	0x3c2dd7b6	0.0106105115
66	0xbd1e8e13	-0.03870971
67	0xbe193710	-0.14962411
68	0xbda9c4ab	-0.082894646
69	0x3d86e78a	0.06587131
70	0x3d8e8ea0	0.06960797
71	0x3db2d123	0.08731296
72	0xba81a0b3	-0.0009889811
73	0xbd7708a7	-0.060310986
74	0xbe373c9f	-0.17894219
75	0xbda0bc71	-0.07848442
76	0x3d6eb883	0.058281433
77	0x3d4594d3	0.048237633
78	0x3ccfe6d9	0.025378631
79	0x3c937231	0.017998787
80	0xbdd761e4	-0.10516718
81	0x3d9db4b5	0.07700483
82	0xbd2e1bb3	-0.042506885
83	0xbe340c40	-0.17582798
84	0xbd17a17b	-0.037019234
85	0x3dff200d	0.12457285
86	0x3e12e12a	0.14343706
87	0xbcce0253	-0.025147593
88	0x3cb6c888	0.022312418
89	0x3e092b79	0.1339549
90	0x3ce528f7	0.027973635
91	0x3ddb6877	0.107132845
92	0xbc277c1c	-0.010222461
93	0xbe328d3c	-0.17436689
94	0x3e176d2c	0.1478774
95	0xbc5d2d81	-0.0134996185
96	0x3da93273	0.082615755
97	0x3dab062c	0.083507866
98	0x3e21f3f8	0.15815723
99	0x3d6bd053	0.05757172
100	0xbd77809a	-0.06042538
101	0x3dbfa6e7	0.09358006
102	0xbd7484ed	-0.05969708
103	0x3d82fcb8	0.063958585
104	0xbb723323	-0.003695675
105	0xbca9257c	-0.020647757
106	0xbd84ac1b	-0.06478139
107	0x3c96457f	0.018343685
108	0xbc2cb8f9	-0.010542148
109	0xbdd4aca4	-0.10384491
110	0xbc8f3523	-0.017481392
111	0x3dab8b2e	0.08376156
112	0x3e27fa82	0.16404155
113	0x3e28b896	0.16476664
114	0xbd878e4e	-0.06618939
115	0xbdb4d8ef	-0.08830439
116	0xbd909c49	-0.07061059
117	0xbddbde27	-0.107357316
118	0xbd2e872d	-0.042609382
119	0x3e083f98	0.13305509
120	0x3dd0cf4d	0.101957895
121	0xbd9ca99b	-0.07649537
122	0x3d7eb8a3	0.062187802
123	0xbc91baf9	-0.01778935
124	0x3dcfc518	0.101450145
125	0xbe4e6c6f	-0.20158552
126	0x3dd74c07	0.10512548
127	0x3e148bb0	0.14506412
128	0x3e59781d	0.21237226
129	0x3d930a86	0.071797416
130	0xbe42bd08	-0.19017422
131	0x3c12e6fb	0.008966203
132	0xbdedb313	-0.11606421
133	0x3bf8a4ce	0.0075880056
134	0xbe21590e	-0.15756628
135	0x3e1db9fd	0.1540298
136	0xbe0b1dbe	-0.13585564
137	0xbcb089bf	-0.021550057
138	0xbe391a3f	-0.18076418
139	0xbe4f3de5	-0.20238455
140	0x3d94a20b	0.0725747
141	0x3e503fd8	0.20336854
142	0x3caea475	0.021318654
143	0x3e209a42	0.15683845
144	0xbe5003a4	-0.20313889
145	0xbc382c00	-0.011240959
146	0xbe036d22	-0.128346
147	0xbdfc5d4c	-0.123224825
148	0xbe0705cc	-0.13185805
149	0xbc41b9cb	-0.011824082
150	0x3e241df0	0.16027045
151	0x3e53266b	0.20620124
152	0xbd1194ad	-0.03554218
153	0x3e5b1b6b	0.21397178
154	0xbe10da3c	-0.1414575
155	0x3e14bfcb	0.14526288
156	0xbcf1d705	-0.029521475
157	0xbd9ec7b8	-0.07752937
158	0xbd422770	-0.04740089
159	0xbe57f55e	-0.21089694
160	0xbdc2742d	-0.09494815
161	0xbda505b0	-0.080577254
162	0x3dad0f2f	0.08450162
163	0xbd55e45a	-0.052219726
164	0xbdcabed6	-0.0989968
165	0x3aab71d5	0.0013080189
166	0xbd97e58d	-0.0741683
167	0xbd122727	-0.03568187
168	0xbc852cab	-0.01625665
169	0xbe4a8932	-0.19778898
170	0x3e05d11d	0.13068052
171	0x3d014f36	0.031569682
172	0x3dc0f985	0.09422592
173	0x3decb17f	0.11557292
174	0xbc137984	-0.00900114
175	0x3e604cd6	0.2190431
176	0x3e477236	0.19477162
177	0x3e89abd5	0.2688891
178	0xbe461c26	-0.19346675
179	0xbd62712a	-0.055283703
180	0x3e05bd6d	0.13060541
181	0xbe67c4af	-0.22633623
182	0x3daed00c	0.085357755
183	0x3dd12882	0.102128044
184	0xbe0fb227	-0.14032803
185	0x3e8d26f8	0.27568793
186	0x3ddc8c2a	0.10768922
187	0x3cca5207	0.024697317
188	0xbda41258	-0.08011311
189	0xbeb08eb9	-0.3448389
190	0x3dab78ff	0.083726875
191	0xbc917a7f	-0.017758606
192	0x3dd13b03	0.10216334
193	0xbe130a39	-0.14359368
194	0xbe492938	-0.1964463
195	0x3b76d246	0.0037661954
196	0xbd08a5bc	-0.03336118
197	0x3d80c9f5	0.0628852
198	0x3b8a8903	0.004227759
199	0x3d6286b8	0.05530426
200	0xbd2c669f	-0.042090055
201	0xbdfc0d1c	-0.12307188
202	0xbe259bfb	-0.16172783
203	0xbdf452d6	-0.11929862
204	0x3da71b40	0.081594944
205	0x3e4da837	0.200837
206	0x3deea0d7	0.116517715
207	0x3e6f5fc8	0.23376381
208	0xbdfba290	-0.12286866
209	0x3e0a1822	0.13485768
210	0x3c0018e4	0.007818434
211	0xbda681fa	-0.0813026
212	0xbe273db2	-0.16332129
213	0x3e083ba9	0.13304009
214	0x3de96389	0.11395938
215	0x3db99d9d	0.090632655
216	0xbd990e41	-0.07473422
217	0xbc904350	-0.017610222
218	0xbe262b9e	-0.16227576
219	0x3dcbbcf8	0.09948152
220	0xbdb44f6c	-0.08804211
221	0xbe0a695e	-0.13516757
222	0xbd6fd3d0	-0.05855161
223	0xbdd5b5f4	-0.104350954
224	0x3c66373b	0.014051254
225	0xbe07da54	-0.1326688
226	0x3e0bc56d	0.1364953
227	0xbd6616b5	-0.056174
228	0xbd85edf7	-0.06539529
229	0xbde82fc2	-0.11337234
230	0x3ce0fd25	0.027464459
231	0x3d652626	0.055944584
232	0xbe34b9eb	-0.17649047
233	0xbd9752ce	-0.073888406
234	0xbdc9759d	-0.09836886
235	0x3d1a3b83	0.03765441
236	0x3d119168	0.03553906
237	0xbd4cc93b	-0.049996596
238	0xbc4d5c13	-0.012534159
239	0x3e370d07	0.17876063
240	0x3e167280	0.14692116
241	0x3ca1374c	0.019679688
242	0x3c8b69e7	0.017018272
243	0xbd2de312	-0.04245288
244	0x3d264edf	0.04060256
245	0x3d4642aa	0.04840342
246	0x3d6bc37e	0.057559483
247	0xbd0e2ca7	-0.034710553
248	0xbd64b96b	-0.05584089
249	0x3c98431b	0.018586686
250	0xbdcbff3d	-0.09960792
251	0xbd2071a6	-0.039170884
252	0xbe0a3a45	-0.1349879
253	0xbd6fe64b	-0.058569234
254	0x3dbfe016	0.09368913
255	0x3dcd4e52	0.10024704

lstm.weight_hh_l1 f4 [256, 64]
0	0xbca3f614	-0.0200148
1	0xbc9cf25c	-0.019158535
2	0xbdca8790	-0.09889138
3	0xbdbfc7d1	-0.09364284
4	0x3cecd92d	0.028912151
5	0xbcb04a5e	-0.021519836
6	0xbdcfc021	-0.101440676
7	0x3d1999ae	0.037500076
8	0x3d580ebc	0.052748427
9	0xbd9d2d47	-0.076746516
10	0xbdbfbc89	-0.09362132
11	0xbcaf32bf	-0.021386502
12	0xbd180c2c	-0.037120983
13	0x3df5b0a1	0.1199658
14	0x3d2a53cd	0.041583825
15	0x3dec7896	0.115464374
16	0x3a7418cc	0.00093115564
17	0xbca6af76	-0.020347338
18	0x3dcc2380	0.099677086
19	0xbd5ec55d	-0.05438744
20	0xbdd56b54	-0.10420862
21	0xbda4a47c	-0.080391854
22	0x3d56326d	0.052294184
23	0xbd63a377	-0.055575814
24	0xbbc16fd5	-0.005903224
25	0xbc7e9de2	-0.015540572
26	0x3d46bb5b	0.04851852
27	0x3ba167c1	0.0049256985
28	0xbddbbbf4	-0.107292086
29	0xbdf516da	-0.11967249
30	0x3c6867e6	0.014184928
31	0x3ccdce5d	0.025122816
32	0x3defcdc0	0.117091656
33	0x3dd20cb4	0.10256329
34	0x3d88ccc7	0.06679683
35	0x3dd7d715	0.105390705
36	0xbde6aa41	-0.11262942
37	0xbdd5d141	-0.10440303
38	0xbd0d0576	-0.034429036
39	0x3def85e1	0.11695457
40	0x3d22149c	0.039570436
41	0x3dcb1a29	0.09917099
42	0x3cd191b6	0.025582176
43	0x3cc4e9d4	0.02403728
44	0xbb541d80	-0.0032366216
45	0x3d307d19	0.043088052
46	0xbd589dd4	-0.05288489
47	0x3d02ccf6	0.031933747
48	0x3d276e43	0.04087664
49	0xbd5ce3c8	-0.053928167
50	0x3d9ec1e7	0.07751828
51	0x3d883cfd	0.066522576
52	0x3d62ca87	0.055368926
53	0x3cbf5d5a	0.023359943
54	0xbcf77708	-0.030208126
55	0x3c446dd0	0.011989072
56	0x3dd61047	0.104523234
57	0x3de2fd76	0.110835
58	0x3d307162	0.04307688
59	0xbcecb6cf	-0.028895764
60	0x3cdf72a2	0.02727634
61	0x3c3e400d	0.011611951
62	0x3c70e898	0.014703892
63	0x3c6095c0	0.013707578
64	0x3d5d413d	0.054017294
65	0x3e03b3f7	0.1286162
66	0x3dd15564	0.10221365
67	0xbd1179dd	-0.03551661
68	0x3d890bcd	0.06691704
69	0xbc759ddd	-0.014991251
70	0x3d1e5927	0.03865924
71	0xbd00de66	-0.031462096
72	0x3d0990f6	0.03358551
73	0xbdf7a616	-0.12092225
74	0x3da6607f	0.08123874
75	0xbd6db741	-0.058036093
76	0xbc9621f5	-0.018326739
77	0xbb8474b1	-0.004042231
78	0x3d1aef35	0.03782578
79	0xbdc65766	-0.09684639
80	0xbdd1b8e2	-0.10240342
81	0x3dee0c02	0.11623384
82	0x3d75d7aa	0.060020126
83	0x3dada325	0.08478383
84	0xbdd9726f	-0.106175296
85	0xbd43f494	-0.04784067
86	0x3deabcfe	0.11461829
87	0xbe04e5f4	-0.12978345
88	0x3ce3c7a1	0.027805151
89	0x3d60ea73	0.05491109
90	0xbdcd9cd2	-0.10039677
91	0x3d82e27e	0.06390856
92	0xbc00ee13	-0.007869261
93	0x3dd7a1f8	0.1052894
94	0xbd0e29dc	-0.03470789
95	0xbde5224d	-0.11188183
96	0xbd887904	-0.06663707
97	0xbd1d6dea	-0.0384349
98	0x3bd92026	0.006626147
99	0x3e03d7d1	0.12875296
100	0xbc85b200	-0.016320229
101	0x3c101599	0.008794212
102	0xbde736b2	-0.11289729
103	0x3dd7bb7b	0.10533806
104	0x3d869fb8	0.06573433
105	0xbd4203b2	-0.047366805
106	0x3dc8608e	0.09784041
107	0xbd01ccb7	-0.031689372
108	0xbd2c32ae	-0.04204052
109	0x3d344624	0.044012204
110	0x3d820444	0.0634847
111	0x3d01e0af	0.031708416
112	0xbbc66027	-0.0060539427
113	0xbcf1b0e2	-0.02950329
114	0xbde7c55e	-0.11316942
115	0x3c0c1eba	0.008552248
116	0x3d620bdd	0.055187095
117	0x3c7ec03f	0.015548765
118	0x3d28a6ed	0.041174818
119	0xbd895d53	-0.06707253
120	0x3cda0e7a	0.026618231
121	0x3d58487d	0.052803505
122	0x3db68e41	0.089138515
123	0xbd8d34fc	-0.068948716
124	0xbdbaa0e9	-0.091127224
125	0x3e18d36e	0.14924404
126	0x3c4cc12b	0.012497227
127	0xbda922fb	-0.08258625
128	0x3e111e11	0.14171626
129	0x3dc52d21	0.09627748
130	0xbd74b867	-0.059746172
131	0x3b24e4b3	0.002516073
132	0xbcf9c0c6	-0.03048743
133	0x3e13189f	0.14364861
134	0x3d21419c	0.03936921
135	0x3d310aeb	0.043223303
136	0xbe3469fe	-0.17618558
137	0xbcd353c0	-0.025796771
138	0xbdb990ad	-0.09060798
139	0x3d7007ad	0.05860107
140	0x3e127a40	0.14304447
141	0x3da23da2	0.07921912
142	0x3d8aace9	0.06771261
143	0xbd91f455	-0.07126681
144	0x3d9b58ec	0.0758532
145	0xbaafc135	-0.0013409021
146	0x3db7e938	0.0898003
147	0xbbda6f04	-0.006666066
148	0x3db3d1e1	0.087802656
149	0xbe5528d1	-0.20816351
150	0x3c1dc56f	0.009629591
151	0xbd669ec6	-0.056303762
152	0xbd542095	-0.051788885
153	0xbdad869e	-0.08472942
154	0xbd263a05	-0.040582675
155	0x3d09c9d2	0.033639736
156	0xbc5d057a	-0.013490075
157	0xbdb8c0eb	-0.09021171
158	0xbcfcc2e2	-0.030854646
159	0xbe26d7e1	-0.16293289
160	0xbc32a5b7	-0.010903767
161	0x3cdd621d	0.027024323
162	0x38ccd89f	9.767827e-05
163	0x3e13db4b	0.14439122
164	0x3cd57a62	0.026059333
165	0xbcd390b0	-0.025825828
166	0xbd953ab8	-0.0728659
167	0x3dc27ab0	0.09496057
168	0xbc06ddcb	-0.0082315905
169	0xbd51e6d6	-0.051245533
170	0x3e13e013	0.14440946
171	0x3e01aeb5	0.12664302
172	0x3db94357	0.09046047
173	0x3db349ff	0.08754348
174	0x3dc6f0e7	0.09713917
175	0xbe1d84ff	-0.15382765
176	0xbcb32826	-0.02186973
177	0x3c82552a	0.01590975
178	0x3de4d67e	0.11173724
179	0x3cc4b62a	0.024012644
180	0xbdb04aa7	-0.08607989
181	0x3e8fe620	0.2810526
182	0xbe4501b4	-0.19238931
183	0x3df494c3	0.119424365
184	0xbd3085a0	-0.043096185
185	0x3dca8521	0.098886736
186	0xbe229e1d	-0.15880628
187	0xbd114639	-0.03546736
188	0x3d9937a0	0.07481313
189	0x3c0a713a	0.008449847
190	0x3dc1f6f0	0.09470928
191	0x3cffba96	0.0312169
192	0xbd72bb8f	-0.0592609
193	0x3db49cb1	0.08818949
194	0x3dd7bcf2	0.10534085
195	0xbdcd1e07	-0.10015493
196	0xbe1159ee	-0.14194462
197	0x3df0b7a8	0.1175378
198	0x3dfe02cc	0.12402877
199	0xbdb666ab	-0.08906301
200	0xbe037d5f	-0.12840794
201	0x3ca329c8	0.019917384
202	0x3d890dff	0.06692123
203	0x3cabfb96	0.020993989
204	0xbd850c81	-0.064965256
205	0x3c1b0356	0.009461245
206	0x3d178d8e	0.03700023
207	0xbd8ff414	-0.07028976
208	0xbb687753	-0.0035471513
209	0xbb51773e	-0.0031961943
210	0x3db70dfb	0.089382134
211	0xbde3eca7	-0.11129122
212	0xbcc4c4f1	-0.02401969
213	0xbda82dd7	-0.08211868
214	0xbd9c7b74	-0.07640734
215	0xbe2f2709	-0.17104734
216	0xbe47cdf9	-0.19512166
217	0x3dbd1bf7	0.092338495
218	0x3de7a148	0.11310059
219	0x3d86df2a	0.06585534
220	0xbd61aece	-0.055098347
221	0xbde66a86	-0.112507865
222	0x3d559442	0.052143343
223	0x3daf629e	0.085637316
224	0xbe1888a0	-0.14895868
225	0x3d48238f	0.048862036
226	0x3ddfa1a7	0.109195046
227	0xbc4359cd	-0.011923266
228	0xbde268c8	-0.11055142
229	0x3c93294b	0.017964026
230	0xbdb2625b	-0.08710166
231	0xbd8c5ae7	-0.06853276
232	0x3c4962b4	0.012291599
233	0x3d970044	0.073730975
234	0x3dd8b7a3	0.10581901
235	0x3de42a70	0.11140907
236	0x3dffbdac	0.12487349
237	0x3e50cf2c	0.2039153
238	0x3d7dea1a	0.061990835
239	0xbdd5a809	-0.10432441
240	0x3dc79779	0.09745688
241	0xbdc17a14	-0.09447113
242	0x3b06ed04	0.002058805
243	0xbde9c03d	-0.1141362
244	0x3de9769e	0.113995776
245	0x3e881abd	0.265829
246	0x3d3554c1	0.04427028
247	0x3c7ad397	0.015309236
248	0xbdde290f	-0.10847675
249	0xbdbdeb6a	-0.09273417
250	0xbc3754a9	-0.011189618
251	0x3da91a73	0.08256998
252	0x3d86d50c	0.06583604
253	0x3dfd3a6b	0.12364658
254	0x3dd8450c	0.10560045
255	0xbc3d8838	-0.011568122

lstm.bias_ih_l1 f4 [256]
0	0xbdc64a0d	-0.09682093
1	0xbd7d0ddc	-0.061780795
2	0xbd032d38	-0.032025546
3	0xbc221379	-0.009892338
4	0x3e394379	0.18092145
5	0x3d937641	0.072002895
6	0xbd439d13	-0.04775722
7	0x3da96f50	0.08273184
8	0xbb9bad70	-0.0047509
9	0x3d314f0d	0.04328828
10	0x3da08d00	0.078393936
11	0xbba34eeb	-0.004983773
12	0x3d8b702d	0.06808505
13	0x3c3974ad	0.011319322
14	0xbc812886	-0.015766393
15	0xbdbc4b2d	-0.09194026
16	0xbe08744b	-0.13325612
17	0x3d25244e	0.040317826
18	0x3bdb1f90	0.006687112
19	0xbdc40413	-0.095710896
20	0x3b434874	0.0029797824
21	0x3d1d6c1c	0.03843318
22	0xbd0bf755	-0.03417142
23	0xbd8b4459	-0.06800146
24	0xbd55adcc	-0.0521677
25	0x3b069721	0.0020536857
26	0x3de64381	0.11243344
27	0xbd9e546f	-0.07730948
28	0x3db5d0df	0.088777296
29	0xbdb85e92	-0.09002413
30	0xbda9d933	-0.082933806
31	0x3db6c83f	0.08924913
32	0xbcb41885	-0.021984348
33	0xbdd79c75	-0.10527889
34	0xbd8c0e2e	-0.06838642
35	0xbbef2bb5	-0.0072989115
36	0x3d945826	0.072433755
37	0x3d2b2e4d	0.041792203
38	0x3d3550df	0.044266578
39	0xbcdbf03e	-0.026847955
40	0xbcbf1ba2	-0.023328606
41	0x3cf3c797	0.029758258
42	0x3b0bf803	0.0021357543
43	0xbdd2fe14	-0.10302368
44	0x3c04459d	0.008073238
45	0xbd2e7530	-0.042592227
46	0xbd8cd574	-0.068766505
47	0x3d13a1e3	0.03604306
48	0x3d754c92	0.059887476
49	0x3dbdcf2e	0.09268032
50	0xbdee6bea	-0.11641677
51	0x3c8892b0	0.016671509
52	0x3d932507	0.07184797
53	0xbc938c4b	-0.018011233
54	0x3dd6ddde	0.104915366
55	0x3a9f771a	0.0012166232
56	0xbd81483f	-0.06312608
57	0x3dbffa4b	0.093739115
58	0x3e5a6c8b	0.21330468
59	0xbd7c40ca	-0.061585225
60	0xbd3375bb	-0.04381345
61	0x3e35db92	0.1775954
62	0x3e142106	0.14465722
63	0x3dc583dd	0.096442915
64	0x3d00fe62	0.0314926
65	0xbda87935	-0.082262434
66	0xbddb218f	-0.1069976
67	0xbe006364	-0.12537915
68	0xbe2f113a	-0.17096415
69	0xbd7f96da	-0.062399723
70	0xbde88600	-0.113536835
71	0xbc41c825	-0.011827503
72	0xbe13de31	-0.14440228
73	0x3a7a48c1	0.00095475843
74	0x3dc00784	0.093764335
75	0x3d204f76	0.03913828
76	0x3d8c5b92	0.06853403
77	0x3dad0dc1	0.08449889
78	0x3d886b60	0.06661105
79	0xbd0ca661	-0.03433836
80	0x3d7d03bf	0.06177115
81	0x3da3f140	0.08004999
82	0xbd68b2b6	-0.056811057
83	0x3cf50667	0.02991028
84	0x3df7c3ed	0.12097917
85	0xbd89af58	-0.06722897
86	0xbc33e212	-0.010979192
87	0x3d5c3199	0.053758238
88	0x3d73a290	0.059481204
89	0xbd094d3a	-0.033520915
90	0x3d515951	0.05111057
91	0xbc2ceb08	-0.010554083
92	0xbdb3d43b	-0.08780714
93	0x3d15a72c	0.03653638
94	0x3d4bc402	0.049747474
95	0xbcb1847e	-0.021669623
96	0x3dba2a72	0.09090127
97	0x3ce37040	0.027763486
98	0xbd96c40e	-0.07361613
99	0x3d1f8aec	0.038950846
100	0xbc904724	-0.017612047
101	0x3d51743c	0.05113624
102	0xbc10bbb6	-0.008833816
103	0x3de9df56	0.11419551
104	0xbcbcf7ed	-0.023067439
105	0xbdf2fb1f	-0.11864304
106	0xbbfe8694	-0.007767508
107	0x3d0b0f29	0.033950005
108	0xbdc92a42	-0.09822513
109	0xbdaf0770	-0.085463405
110	0xbe0b12ac	-0.13581342
111	0xbd901753	-0.07035699
112	0xbdb96da0	-0.090541124
113	0xbda3716a	-0.079806164
114	0x3d8e9b1d	0.06963179
115	0xbdbf38b2	-0.09336986
116	0x3cfe143c	0.031015508
117	0xbd9497dc	-0.072555274
118	0xbc403122	-0.011730464
119	0x3daaf45d	0.0834739
120	0x3dc44918	0.09584254
121	0xbdb9bfbd	-0.09069774
122	0xbdc642cd	-0.0968071
123	0x3d9b6e7e	0.07589434
124	0x3d1122d8	0.03543362
125	0xbdb20e3f	-0.086941235
126	0xbe15cce3	-0.1462894
127	0x3dd6663d	0.10468719
128	0xbd86da95	-0.0658466
129	0x3d8712a0	0.06595349
130	0x3d055d8c	0.032559916
131	0x3d36e354	0.04465039
132	0xbdfd319c	-0.12362978
133	0x3d73bfce	0.05950909
134	0xbca0ad16	-0.019613784
135	0x3ce35dd4	0.027754702
136	0xbdd675c9	-0.104716845
137	0xbddc3699	-0.10752601
138	0xbd9198fc	-0.071092576
139	0x3dc29ec3	0.09502938
140	0xbb7aa48c	-0.003824505
141	0x3dc8f60d	0.098125555
142	0x3e023393	0.12714987
143	0xbde2ed9d	-0.110804774
144	0xbdaaf1eb	-0.083469234
145	0xbd8c4cf1	-0.06850613
146	0x3d36cd07	0.044629123
147	0xbde289d1	-0.11061443
148	0x3dc90a0c	0.098163694
149	0xbb899220	-0.0041983277
150	0xbd627002	-0.0552826
151	0x3a91a22f	0.0011110957
152	0x3cb5ce40	0.022193074
153	0xbd144935	-0.03620263
154	0xbd652a37	-0.055948462
155	0x3db90ddc	0.090358466
156	0x3d249d54	0.040189102
157	0x3ccf96c6	0.025340449
158	0x3da3749e	0.07981227
159	0xbb756b33	-0.003744793
160	0x3d774820	0.060371518
161	0xbc66b3bc	-0.014080938
162	0xbd2b157f	-0.041768547
163	0x3dc27780	0.09495449
164	0xbe009333	-0.12556152
165	0xbdce59e8	-0.10075742
166	0xbcb3b08b	-0.021934768
167	0x3d26935f	0.040667888
168	0xbd9d088e	-0.07667647
169	0xbb8135da	-0.003943187
170	0x3d8e3edd	0.06945584
171	0x3dc2293a	0.094805196
172	0x3ca0aada	0.019612718
173	0x3d50b332	0.050952144
174	0x3d5b1a80	0.05349207
175	0xbde5d39b	-0.11222001
176	0x3d73c1c5	0.059510965
177	0xbd51f9df	-0.051263686
178	0xbdbbcaf7	-0.09169572
179	0xbdc1f0c4	-0.094697505
180	0x3db30d96	0.08742826
181	0xbd597efb	-0.053099614
182	0x3cbc71cd	0.023003483
183	0x3d718928	0.058968693
184	0xbd61967a	-0.055075146
185	0xbdadafce	-0.08480798
186	0x3d9d60fe	0.076845154
187	0xbc081bf9	-0.00830745
188	0x3e0bde31	0.13658978
189	0x3e14a15d	0.1451468
190	0xbd6c06be	-0.057623617
191	0xbde266c8	-0.1105476
192	0xbdc9128b	-0.0981799
193	0x3d94a8f3	0.07258787
194	0x3dcef89a	0.10106011
195	0x3e351701	0.17684557
196	0x3df770a4	0.12082031
197	0xbd1c6a30	-0.038187206
198	0xbd3d2dc5	-0.046186227
199	0x3c8c6272	0.017136786
200	0xbc947ab1	-0.01812491
201	0xbdb6ab0b	-0.089193426
202	0x3d8070b8	0.062714994
203	0xbd4bd3bf	-0.049762484
204	0xbd7a90d9	-0.061173294
205	0x3da611e4	0.08108881
206	0xbcfb0e78	-0.030646548
207	0xbd463c65	-0.04839744
208	0xbe051cb0	-0.12999225
209	0x3e08462f	0.13308023
210	0x3d9fba03	0.07799151
211	0xbd8e014e	-0.069338426
212	0xbd47083d	-0.04859184
213	0x3e10c4ca	0.14137569
214	0x3cd5587c	0.02604317
215	0x3dee650d	0.11640368
216	0xbd2b4476	-0.041813336
217	0x3df37eb1	0.11889399
218	0x3dc6faef	0.097158305
219	0xbce3c2c5	-0.027802834
220	0x3bbb3cbd	0.0057140277
221	0x3dd6b740	0.10484171
222	0x3d2ce163	0.042207133
223	0x3dd3356f	0.10312926
224	0x3df5b9b5	0.119983114
225	0xbd2e3d00	-0.042538643
226	0x3df1b42c	0.11801943
227	0xbd9eaeef	-0.0774821
228	0xbddbc8b6	-0.10731642
229	0xbd9ff49a	-0.07810326
230	0x3df7b49b	0.12094995
231	0xbd73478a	-0.059394397
232	0x3d0f58d6	0.03499683
233	0xbdcbaf79	-0.09945578
234	0xbda1d075	-0.07901088
235	0xbd36a923	-0.044594895
236	0xbdcb8ab4	-0.09938565
237	0xbdbb12a9	-0.091344185
238	0xbd0cb313	-0.034350466
239	0x3a73aca7	0.00092954416
240	0x3db34834	0.08754006
241	0xbd84ef28	-0.06490928
242	0x3bce8857	0.006302874
243	0xbca29a75	-0.019849041
244	0xbd6db157	-0.058030453
245	0x3dbe30cc	0.09286651
246	0x3e80620b	0.250748
247	0x3de65ced	0.11248193
248	0xbd9464fa	-0.07245822
249	0x3df53dd9	0.11974687
250	0x3e5949b4	0.21219522
251	0x3da9b987	0.0828734
252	0x3c43ba00	0.011946201
253	0x3e28c0aa	0.16479746
254	0x3d931d58	0.07183331
255	0xbd9199c3	-0.07109406
